PyHealth_Contribution/examples/loinc_mapping_mimic3/weights/pytorch_model.bin (torch, 199061 bytes, 2 tensors)

fc.1.weight f4 [128, 384]
00000000: 2420 86bd a687 ec3f 67cf c63f af45 f43e
00000010: 52ba 00bf b157 cf3e dc9e d7bc c025 68bd
00000020: b732 533f 2c54 173f 9154 c03e 3368 93bd
00000030: 2a2b 56bf 4524 08c0 d7ef d73f b648 a13e
00000040: d3bb 923e fa3b 3cbe d548 e63e 41a6 973e
00000050: 4eef 513f bab2 91be 6aa6 a83f 12ee c83e
00000060: 95da 5c3e 9fdc 793f e664 65be d879 8a3f
00000070: 8b19 073f 3b92 c83f 380e 1fbc b63d 093f
00000080: 6974 8c3f 3ba5 0fc0 b4eb 9a3f ba40 413f
00000090: d987 81be 0612 a0bf 1979 373e 8079 5e3e
000000a0: 35c3 123f c142 5d3e 15a0 85bf e41b f53f
000000b0: 07e0 533f 98ac c2b9 272d b63c a16b 91be
000000c0: cf6a 2cbf 169a 9e3f b9ae 20be 4706 ab3e
000000d0: 42e1 6b3f 1418 8a3f 5f41 923b bf8f 173f
000000e0: b883 9a3f 9fa0 c8be b5c0 0b40 d5fb 133f
000000f0: 3436 af3f f19b 963f 2cee b43e 6724 af3f
00000100: 93d0 da3e 3288 593f 9ce7 bf3f 0ff1 6fbf
00000110: f7eb b13f 6763 283f af70 59bf 9edb 6c3f
00000120: 4c58 913e f23c 2abf 0419 12c0 80ba 04c0
00000130: b30a acbe ef0b c6bd 2fe6 443f df60 95be
00000140: deb2 1dc0 e3f5 473f 8c9b 4c3f 6a12 85bf
00000150: ceca 9d3f 396e 3fbf 5b51 99bf b8b3 bb3f
00000160: a46a cdbf 5345 ef3e 6b4b 313f 4568 0a3f
00000170: 760a 253f 881e a53d d2fa f7be e79a 04be
00000180: 17e0 3c40 7545 123f 1f10 16bf 4a21 8d3d
00000190: 3661 3bbd 5e89 bdbe 858d 0d3f fae1 c03f
000001a0: efd9 463f 1e3b f3bf 14bf 673f 8864 34bf
000001b0: 404e 9e3f 5e64 12bf 1b08 8cbe d458 b83f
000001c0: 0d4f f83f fecc 2cbf 8039 bc3e e11c fd3b
000001d0: 14ea cbbf f146 aabf 4ee0 08be 31f7 ef3d
000001e0: bc05 bbbf a4c0 a83c 00f3 63bf 7f73 a73d
000001f0: ccde d5bf 8eed ae3f f5b8 23bf 2f90 55bf
00000200: aa41 a5bf f21e a0bc 5858 bb3f b6ab 973f
00000210: 0c69 0ac0 85f5 bdbe cd40 88bc da1a 843f
00000220: 816b 833f aa42 cb3f f0fc d53f 6d9e eb3f
00000230: c602 1f3f 7cf5 0f3f 496e 303d 0bd3 7a3e
00000240: 3eb0 3d3f f9c5 74bf de1c e93a a722 68bf
00000250: 2bcf cb3f 71f0 173f e830 03c0 c904 703f
00000260: dd7e ddbe b025 853f 1713 233f 265e 6abe
00000270: 632f 093f 98cb 24bf f0d9 09c0 0ccb 49bf
00000280: d88a 59bf b644 29bf 5a9f a6be 536e 38bf
00000290: 30bf 363f 7090 cabe 525c 02be 7195 d63f
000002a0: 6c20 e03f 8993 553f 6f1a 9abe 3377 a4bf
000002b0: 9669 393f 9f66 e5bf cefc 90bf 088b 233e
000002c0: de56 303f 1571 3fbe 22b8 3cbf 89d5 65bd
000002d0: a8ec 66be 6968 ae3f ecd3 033e 2731 af3f
000002e0: 6f55 873f bcca 34be 53e6 21bf 432c 073f
000002f0: f9af e33f d87c c6bf 1581 7a3e a605 083f
00000300: 1c53 493f e394 3bbf 22cd bc3e 756d 8abe
00000310: a51b ba3e 145b a6be 0130 8c3e 90b5 a7bf
00000320: 2304 ec3e 37ab 10be 448a 52bf f2ce 09c0
00000330: 1844 c6bf 3dff 01bf 2f24 0140 e8de a6be
00000340: ee42 203f 7121 d03c 6657 ec3f 7650 873f
00000350: 0467 de3f 95f4 90bf bc5f 83be 23b8 603e
00000360: de98 103f 208d 7ebf 6ff3 6e3f 1c03 42be
00000370: b035 83bf 0c09 df3f cfa5 d23f 77dd 483e
00000380: 42d2 393f 5d14 683f 58d4 06c0 01fc f03d
00000390: dfb5 dbbf 42d3 cbbc fef0 143e 2f10 1cbf
000003a0: 342e 8e3d a2ee 8cbf 4fbf fd3e 21e3 683f
000003b0: 0dc9 25bf f064 703f f814 cfbe 81eb 78bd
000003c0: 525f 033e d37e 46be 8ec6 733f fec1 e5bf
000003d0: 79b9 923d bafa 2b3f 93e5 de3f 65c2 0f3e
000003e0: 89e9 19be df58 b03f 3ac8 87bc 2ae6 103f
000003f0: 36b0 66be f421 2a40 6314 7a3e 03f1 883f
-0.06549099 1.8478897 1.5532044 0.47709414 -0.502843 0.4049659 -0.026320867 -0.056676626
0.8249926 0.5911281 0.3756452 -0.07197609 -0.83659613 -2.1272137 1.6870068 0.31500787
0.28658924 -0.18382254 0.4497744 0.2961903 0.82005775 -0.2845667 1.3175786 0.39244133
0.21567757 0.97602266 -0.22401771 1.0818434 0.5277335 1.5669626 -0.00970798 0.5360979
1.0973026 -2.2444599 1.2103181 0.7548939 -0.25298956 -1.25055 0.17917289 0.21726036
0.5732911 0.21607496 -1.0439478 1.9149137 0.82763714 -0.00037131156 0.022238327 -0.28402427
-0.67350477 1.2390773 -0.15691651 0.33403227 0.9214059 1.0788598 0.0044633592 0.59203714
1.2071447 -0.39185044 2.183637 0.5780614 1.3688416 1.176634 0.3533796 1.3682984
0.42737255 0.8497344 1.4992557 -0.937272 1.3900136 0.65776676 -0.84937567 0.9252261
0.28387678 -0.66499245 -2.2827768 -2.073883 -0.33601913 -0.09670245 0.7691373 -0.2917547
-2.4640422 0.7810957 0.79924846 -1.0396245 1.2327516 -0.7477756 -1.1977953 1.4664221
-1.6048169 0.46732578 0.69255704 0.5406535 0.6446909 0.08062464 -0.48433548 -0.12949716
2.9511774 0.57137233 -0.5861835 0.06891115 -0.045747004 -0.37018865 0.55294067 1.5068963
0.7767629 -1.9002416 0.9052594 -0.704659 1.236763 -0.571844 -0.27349934 1.4402108
1.9399124 -0.67500293 0.3676262 0.00772439 -1.593081 -1.33029 -0.13366815 0.1171707
-1.4611125 0.02059967 -0.89042664 0.08176326 -1.6708617 1.3666246 -0.639541 -0.8342313
-1.2910664 -0.019546006 1.4636335 1.1849277 -2.1626616 -0.3710138 -0.016632462 1.0320694
1.0267183 1.5879719 1.6717815 1.8407723 0.62113607 0.56233954 0.043073926 0.24494569
0.7409705 -0.9561458 0.0017785092 -0.90677875 1.5922598 0.5935126 -2.04986 0.937573
-0.43260852 1.0402126 0.63701004 -0.22887477 0.5358793 -0.6437316 -2.1539268 -0.7882545
-0.84977484 -0.6612047 -0.3254345 -0.7204334 0.7138548 -0.39563322 -0.1273053 1.6764356
1.7509894 0.83428246 -0.30098292 -1.2848877 0.72426736 -1.7921942 -1.132715 0.15971005
0.6888255 -0.18695481 -0.73718464 -0.056111846 -0.22551215 1.3625613 0.1287381 1.3686875
1.0572947 -0.17655462 -0.6324207 0.52801913 1.7788078 -1.5506849 0.24463303 0.5313362
0.7864244 -0.7327406 0.36875254 -0.27036634 0.36349216 -0.32491362 0.27380374 -1.3102283
0.46096906 -0.14127813 -0.82242227 -2.153256 -1.548953 -0.5078009 2.0178335 -0.3259194
0.62602127 0.025406571 1.8464172 1.057143 1.7375188 -1.132464 -0.25658977 0.21945243
0.56483257 -0.9943409 0.933402 -0.18946499 -1.0250759 1.7424636 1.6456851 0.19615732
0.7258645 0.9065607 -2.1067104 0.11766816 -1.7164878 -0.024881009 0.14545056 -0.60962194
0.06942406 -1.1010325 0.4956002 0.9097157 -0.64759904 0.9390402 -0.40445685 -0.06077147
0.1282933 -0.19384317 0.95224845 -1.7949827 0.07164282 0.67179453 1.741381 0.14039
-0.15030493 1.3777121 -0.016574968 0.566012 -0.22528157 2.6583223 0.2442184 1.0698551

fc.1.bias f4 [128]
00000000: 0000 0000 0000 0000 0000 0000 0000 0000
00000010: 0000 0000 0000 0000 0000 0000 0000 0000
00000020: 0000 0000 0000 0000 0000 0000 0000 0000
00000030: 0000 0000 0000 0000 0000 0000 0000 0000
00000040: 0000 0000 0000 0000 0000 0000 0000 0000
00000050: 0000 0000 0000 0000 0000 0000 0000 0000
00000060: 0000 0000 0000 0000 0000 0000 0000 0000
00000070: 0000 0000 0000 0000 0000 0000 0000 0000
00000080: 0000 0000 0000 0000 0000 0000 0000 0000
00000090: 0000 0000 0000 0000 0000 0000 0000 0000
000000a0: 0000 0000 0000 0000 0000 0000 0000 0000
000000b0: 0000 0000 0000 0000 0000 0000 0000 0000
000000c0: 0000 0000 0000 0000 0000 0000 0000 0000
000000d0: 0000 0000 0000 0000 0000 0000 0000 0000
000000e0: 0000 0000 0000 0000 0000 0000 0000 0000
000000f0: 0000 0000 0000 0000 0000 0000 0000 0000
00000100: 0000 0000 0000 0000 0000 0000 0000 0000
00000110: 0000 0000 0000 0000 0000 0000 0000 0000
00000120: 0000 0000 0000 0000 0000 0000 0000 0000
00000130: 0000 0000 0000 0000 0000 0000 0000 0000
00000140: 0000 0000 0000 0000 0000 0000 0000 0000
00000150: 0000 0000 0000 0000 0000 0000 0000 0000
00000160: 0000 0000 0000 0000 0000 0000 0000 0000
00000170: 0000 0000 0000 0000 0000 0000 0000 0000
00000180: 0000 0000 0000 0000 0000 0000 0000 0000
00000190: 0000 0000 0000 0000 0000 0000 0000 0000
000001a0: 0000 0000 0000 0000 0000 0000 0000 0000
000001b0: 0000 0000 0000 0000 0000 0000 0000 0000
000001c0: 0000 0000 0000 0000 0000 0000 0000 0000
000001d0: 0000 0000 0000 0000 0000 0000 0000 0000
000001e0: 0000 0000 0000 0000 0000 0000 0000 0000
000001f0: 0000 0000 0000 0000 0000 0000 0000 0000
0.0 0.0 0.0 0.0 0.0 0.0 0.0 0.0
0.0 0.0 0.0 0.0 0.0 0.0 0.0 0.0
0.0 0.0 0.0 0.0 0.0 0.0 0.0 0.0
0.0 0.0 0.0 0.0 0.0 0.0 0.0 0.0
0.0 0.0 0.0 0.0 0.0 0.0 0.0 0.0
0.0 0.0 0.0 0.0 0.0 0.0 0.0 0.0
0.0 0.0 0.0 0.0 0.0 0.0 0.0 0.0
0.0 0.0 0.0 0.0 0.0 0.0 0.0 0.0
0.0 0.0 0.0 0.0 0.0 0.0 0.0 0.0
0.0 0.0 0.0 0.0 0.0 0.0 0.0 0.0
0.0 0.0 0.0 0.0 0.0 0.0 0.0 0.0
0.0 0.0 0.0 0.0 0.0 0.0 0.0 0.0
0.0 0.0 0.0 0.0 0.0 0.0 0.0 0.0
0.0 0.0 0.0 0.0 0.0 0.0 0.0 0.0
0.0 0.0 0.0 0.0 0.0 0.0 0.0 0.0
0.0 0.0 0.0 0.0 0.0 0.0 0.0 0.0
